test/xcore_model_firmware/models/cifar10_quant.tflite (tflite, 99472 bytes, 4 tensors)

CIFAR10_benchmark_model/dense/MatMul i1 [10, 1024] scale=0.007852703 zero_point=0
000000 fa fc 09 e9 f9 e7 e3 e6 f5 08 c9 fe de d8 d6 10
       -0.04711622 -0.031410813 0.07067433 -0.18061218 -0.054968923 -0.19631758 -0.2277284 -0.20417029 -0.08637974 0.06282163 -0.43189868 -0.015705407 -0.2669919 -0.31410813 -0.32981354 0.12564325
000010 f0 db ea fe f3 2f 0e 02 fd 0f 07 d5 fc 15 e6 f7
       -0.12564325 -0.29055002 -0.17275947 -0.015705407 -0.10208514 0.36907706 0.10993785 0.015705407 -0.02355811 0.11779055 0.054968923 -0.33766624 -0.031410813 0.16490677 -0.20417029 -0.07067433
000020 06 e8 ee ff 0c e6 d4 ff fe f1 34 fb de 0b f8 f8
       0.04711622 -0.18846488 -0.14134866 -0.007852703 0.09423244 -0.20417029 -0.34551895 -0.007852703 -0.015705407 -0.11779055 0.40834057 -0.039263517 -0.2669919 0.08637974 -0.06282163 -0.06282163
000030 07 f9 0b ec 0e ec d2 f5 0d e8 f1 06 1b f1 16 01
       0.054968923 -0.054968923 0.08637974 -0.15705407 0.10993785 -0.15705407 -0.36122435 -0.08637974 0.10208514 -0.18846488 -0.11779055 0.04711622 0.21202299 -0.11779055 0.17275947 0.007852703
000040 0b 27 15 22 fd 14 e1 dd fb f6 cf 04 08 eb cd 10
       0.08637974 0.30625543 0.16490677 0.2669919 -0.02355811 0.15705407 -0.2434338 -0.27484462 -0.039263517 -0.07852703 -0.38478246 0.031410813 0.06282163 -0.16490677 -0.40048787 0.12564325
000050 ff f8 fe de ef 20 f6 ef 0d 2e 2e f8 fc 21 fa 05
       -0.007852703 -0.06282163 -0.015705407 -0.2669919 -0.13349596 0.2512865 -0.07852703 -0.13349596 0.10208514 0.36122435 0.36122435 -0.06282163 -0.031410813 0.2591392 -0.04711622 0.039263517
000060 f5 da fb 0f fe ee e4 21 27 07 e4 14 ac 1d 18 24
       -0.08637974 -0.29840273 -0.039263517 0.11779055 -0.015705407 -0.14134866 -0.2198757 0.2591392 0.30625543 0.054968923 -0.2198757 0.15705407 -0.6596271 0.2277284 0.18846488 0.28269732
000070 0e 09 13 05 08 25 fe fb 16 ec 04 d5 fc ef 02 13
       0.10993785 0.07067433 0.14920136 0.039263517 0.06282163 0.29055002 -0.015705407 -0.039263517 0.17275947 -0.15705407 0.031410813 -0.33766624 -0.031410813 -0.13349596 0.015705407 0.14920136
000080 f8 11 03 0a 12 15 f7 f5 f3 fe db 11 f2 f6 b2 ff
       -0.06282163 0.13349596 0.02355811 0.07852703 0.14134866 0.16490677 -0.07067433 -0.08637974 -0.10208514 -0.015705407 -0.29055002 0.13349596 -0.10993785 -0.07852703 -0.61251086 -0.007852703
000090 0c e0 00 f9 06 2a 0d ee 12 14 e9 e2 2e 09 d9 19
       0.09423244 -0.2512865 0.0 -0.054968923 0.04711622 0.32981354 0.10208514 -0.14134866 0.14134866 0.15705407 -0.18061218 -0.2355811 0.36122435 0.07067433 -0.30625543 0.19631758
0000a0 e4 0a f1 ff fc e9 08 0f 06 f8 c7 06 d5 10 19 ff
       -0.2198757 0.07852703 -0.11779055 -0.007852703 -0.031410813 -0.18061218 0.06282163 0.11779055 0.04711622 -0.06282163 -0.4476041 0.04711622 -0.33766624 0.12564325 0.19631758 -0.007852703
0000b0 20 e9 f2 25 0e 23 0f 18 26 f3 0f ef fd d7 13 09
       0.2512865 -0.18061218 -0.10993785 0.29055002 0.10993785 0.27484462 0.11779055 0.18846488 0.29840273 -0.10208514 0.11779055 -0.13349596 -0.02355811 -0.32196084 0.14920136 0.07067433
0000c0 22 f2 12 e4 0a d2 04 e4 f6 eb f0 f3 0e cc c5 f6
       0.2669919 -0.10993785 0.14134866 -0.2198757 0.07852703 -0.36122435 0.031410813 -0.2198757 -0.07852703 -0.16490677 -0.12564325 -0.10208514 0.10993785 -0.40834057 -0.4633095 -0.07852703
0000d0 1b ce fb f2 10 1d 00 0d ea fb f9 18 0b 18 15 06
       0.21202299 -0.39263517 -0.039263517 -0.10993785 0.12564325 0.2277284 0.0 0.10208514 -0.17275947 -0.039263517 -0.054968923 0.18846488 0.08637974 0.18846488 0.16490677 0.04711622
0000e0 f6 1e 18 fa f8 0a f5 fc 02 16 db 1b 18 f0 f4 e5
       -0.07852703 0.2355811 0.18846488 -0.04711622 -0.06282163 0.07852703 -0.08637974 -0.031410813 0.015705407 0.17275947 -0.29055002 0.21202299 0.18846488 -0.12564325 -0.09423244 -0.21202299
0000f0 da 06 ec 19 18 e4 09 ff 17 0d 1f e3 e1 15 e1 f6
       -0.29840273 0.04711622 -0.15705407 0.19631758 0.18846488 -0.2198757 0.07067433 -0.007852703 0.18061218 0.10208514 0.2434338 -0.2277284 -0.2434338 0.16490677 -0.2434338 -0.07852703

CIFAR10_benchmark_model/conv2d/Conv2D i1 [32, 5, 5, 3]
000000 ce 18 1b db 14 15 c3 25 19 cd 14 28 ed 17 13 e9
       -50 24 27 -37 20 21 -61 37 25 -51 20 40 -19 23 19 -23
000010 13 16 ba 06 31 ab 0e 3d c0 25 28 c7 1c 20 e6 e1
       19 22 -70 6 49 -85 14 61 -64 37 40 -57 28 32 -26 -31
000020 0a c3 d7 00 c1 ca f9 d0 ca fe e9 ec 02 37 fc f6
       10 -61 -41 0 -63 -54 -7 -48 -54 -2 -23 -20 2 55 -4 -10
000030 47 f7 f4 3e 01 d4 31 f2 ee 26 f9 eb 4e e1 cf 6d
       71 -9 -12 62 1 -44 49 -14 -18 38 -7 -21 78 -31 -49 109
000040 02 c0 7f 13 be 67 10 be 51 f3 d4 f6 1f f8 cd 62
       2 -64 127 19 -66 103 16 -66 81 -13 -44 -10 31 -8 -51 98
000050 e2 ef 7b b3 e9 57 b1 ed 15 0a d2 55 cb b0 7d aa
       -30 -17 123 -77 -23 87 -79 -19 21 10 -46 85 -53 -80 125 -86
000060 c3 7d 8a cc 6b b1 cd 15 ef da 57 ce ae 7c c3 db
       -61 125 -118 -52 107 -79 -51 21 -17 -38 87 -50 -82 124 -61 -37
000070 7f c6 e7 6a c7 d0 12 06 e2 2c 00 b0 38 db e3 68
       127 -58 -25 106 -57 -48 18 6 -30 44 0 -80 56 -37 -29 104
000080 f3 b5 24 d3 d0 12 3a 20 e1 29 e2 ed f2 23 2b ea
       -13 -75 36 -45 -48 18 58 32 -31 41 -30 -19 -14 35 43 -22
000090 04 ea e0 19 b7 45 d5 04 dc ea f6 e9 39 43 24 15
       4 -22 -32 25 -73 69 -43 4 -36 -22 -10 -23 57 67 36 21
0000a0 f8 06 f2 ea 03 f4 12 d4 58 60 3b 14 19 2a a7 bc
       -8 6 -14 -22 3 -12 18 -44 88 96 59 20 25 42 -89 -68
0000b0 b9 f8 ea 02 1c 3c 06 1d 0a 28 81 84 af d8 db e8
       -71 -8 -22 2 28 60 6 29 10 40 -127 -124 -81 -40 -37 -24
0000c0 44 39 34 00 09 02 cd d9 cc dc d4 ed 5b 5a 5d 11
       68 57 52 0 9 2 -51 -39 -52 -36 -44 -19 91 90 93 17
0000d0 f2 ea 01 fd 05 07 d5 07 29 22 1e 0c f1 0c ec d2
       -14 -22 1 -3 5 7 -43 7 41 34 30 12 -15 12 -20 -46
0000e0 e3 1e 00 f2 17 e9 e6 0a e6 fc 25 eb fc 15 d2 02
       -29 30 0 -14 23 -23 -26 10 -26 -4 37 -21 -4 21 -46 2
0000f0 09 e7 fa 08 df 19 e7 df 36 01 e3 5b 0e f3 43 f1
       9 -25 -6 8 -33 25 -25 -33 54 1 -29 91 14 -13 67 -15

CIFAR10_benchmark_model/conv2d_1/Conv2D i1 [32, 5, 5, 32]
000000 00 26 e2 21 27 fe 0a fe 1f 05 20 2e fe 0e 2a ea
       0 38 -30 33 39 -2 10 -2 31 5 32 46 -2 14 42 -22
000010 2e f7 08 19 00 0e 15 0c 13 db 3b 0d ff ff f4 f1
       46 -9 8 25 0 14 21 12 19 -37 59 13 -1 -1 -12 -15
000020 fe 04 01 f5 0e f6 22 de 08 1f 0e 1f 17 08 0e f9
       -2 4 1 -11 14 -10 34 -34 8 31 14 31 23 8 14 -7
000030 0a f7 03 02 ef 14 f5 db f9 f9 02 10 d9 f8 0c 14
       10 -9 3 2 -17 20 -11 -37 -7 -7 2 16 -39 -8 12 20
000040 10 f5 05 c4 00 1b 0c 08 dd 0d 15 d4 18 09 d5 19
       16 -11 5 -60 0 27 12 8 -35 13 21 -44 24 9 -43 25
000050 01 e5 df e5 e2 1f ca bd f4 df cd 0d f5 f1 0a 03
       1 -27 -33 -27 -30 31 -54 -67 -12 -33 -51 13 -11 -15 10 3
000060 2f 05 ec e0 0b 0f 18 e2 e4 30 0b dc 01 f9 fb ff
       47 5 -20 -32 11 15 24 -30 -28 48 11 -36 1 -7 -5 -1
000070 fe ed f8 f9 27 09 f7 e9 06 06 d5 19 16 f2 03 f6
       -2 -19 -8 -7 39 9 -9 -23 6 6 -43 25 22 -14 3 -10
000080 41 03 1d 04 2a 20 10 10 f2 ff 28 f5 fc 0f 39 e2
       65 3 29 4 42 32 16 16 -14 -1 40 -11 -4 15 57 -30
000090 26 19 d9 08 21 e1 27 1f 0c db fa 21 17 0e 11 fa
       38 25 -39 8 33 -31 39 31 12 -37 -6 33 23 14 17 -6
0000a0 26 40 00 14 23 02 fe 11 24 23 1f 32 01 04 18 15
       38 64 0 20 35 2 -2 17 36 35 31 50 1 4 24 21
0000b0 2e 38 09 2f 13 e4 13 01 fc 12 4d 06 0d 06 1b ed
       46 56 9 47 19 -28 19 1 -4 18 77 6 13 6 27 -19
0000c0 fe 1e 18 e5 1c 14 fd 19 e4 10 0c 2b 1f e1 d6 fe
       -2 30 24 -27 28 20 -3 25 -28 16 12 43 31 -31 -42 -2
0000d0 0f fc 29 19 dc f4 e0 c9 f5 22 14 ea e1 f7 07 16
       15 -4 41 25 -36 -12 -32 -55 -11 34 20 -22 -31 -9 7 22
0000e0 eb fd 0b a8 e6 ec ef 14 9c fa ec d7 34 ea 81 35
       -21 -3 11 -88 -26 -20 -17 20 -100 -6 -20 -41 52 -22 -127 53
0000f0 d5 c6 08 c1 c2 1f 92 d5 ff 03 c5 f8 d5 f1 fd 13
       -43 -58 8 -63 -62 31 -110 -43 -1 3 -59 -8 -43 -15 -3 19

CIFAR10_benchmark_model/conv2d_2/Conv2D i1 [64, 5, 5, 32]
000000 f4 eb 20 fa da ff 1d 20 4a cf ec dc e8 0c ad 27
       -12 -21 32 -6 -38 -1 29 32 74 -49 -20 -36 -24 12 -83 39
000010 18 ed f6 10 1d f5 b4 f6 0d be e6 ff 32 e1 fa 17
       24 -19 -10 16 29 -11 -76 -10 13 -66 -26 -1 50 -31 -6 23
000020 03 15 e9 f7 0d ce fd 43 30 b9 f6 e7 d6 1c b8 4e
       3 21 -23 -9 13 -50 -3 67 48 -71 -10 -25 -42 28 -72 78
000030 f5 e6 fa 9d 06 c5 17 09 12 d8 cf 06 e2 e5 d5 d7
       -11 -26 -6 -99 6 -59 23 9 18 -40 -49 6 -30 -27 -43 -41
000040 0a 0e 00 f8 e6 b8 f5 54 c3 00 f0 da ec 33 f0 45
       10 14 0 -8 -26 -72 -11 84 -61 0 -16 -38 -20 51 -16 69
000050 92 ec d7 1b 24 ef 1a dd 2d e0 da 00 d9 fa ff 21
       -110 -20 -41 27 36 -17 26 -35 45 -32 -38 0 -39 -6 -1 33
000060 08 06 fd 17 e2 b3 30 20 f2 0f de 21 19 1a fa c9
       8 6 -3 23 -30 -77 48 32 -14 15 -34 33 25 26 -6 -55
000070 c5 f1 d1 d0 e1 d4 0c 29 dd f5 ca 02 ce d6 de 28
       -59 -15 -47 -48 -31 -44 12 41 -35 -11 -54 2 -50 -42 -34 40
000080 cf 01 be 4d b1 e9 42 14 cb f0 eb 4a fb 0f 15 86
       -49 1 -66 77 -79 -23 66 20 -53 -16 -21 74 -5 15 21 -122
000090 ab e0 b1 b5 d7 f8 10 00 cd d3 d5 f4 b4 1c 0f 45
       -85 -32 -79 -75 -41 -8 16 0 -51 -45 -43 -12 -76 28 15 69
0000a0 e0 c4 37 d4 ea e8 29 0a 1a d3 40 d2 16 23 ca e0
       -32 -60 55 -44 -22 -24 41 10 26 -45 64 -46 22 35 -54 -32
0000b0 04 dd f5 04 fa fb f4 eb dd d7 40 06 2d eb 14 ea
       4 -35 -11 4 -6 -5 -12 -21 -35 -41 64 6 45 -21 20 -22
0000c0 0c de 02 09 24 ad fd 3d e1 c4 1c 0a 0a 47 cb 18
       12 -34 2 9 36 -83 -3 61 -31 -60 28 10 10 71 -53 24
0000d0 eb de bd be b8 f7 31 e9 f9 07 30 0c 05 df cc e3
       -21 -34 -67 -66 -72 -9 49 -23 -7 7 48 12 5 -33 -52 -29
0000e0 f7 e3 e9 c1 ff b8 09 65 bf 1a 06 fc 0e 36 d3 1d
       -9 -29 -23 -63 -1 -72 9 101 -65 26 6 -4 14 54 -45 29
0000f0 98 1f 9e 06 f0 16 f9 d6 05 f3 09 fb f9 ef f1 e8
       -104 31 -98 6 -16 22 -7 -42 5 -13 9 -5 -7 -17 -15 -24
